models/pg/reinforce_policy.pth (torch, 23233 bytes, 6 tensors)

network.0.weight f4 [64, 6]
0.25187424 -0.33697972 -0.12345827 0.07891593 -0.24804974 0.22791883 -0.39238346 0.13266784
-0.11629952 0.2735548 -0.056882963 0.22517532 0.06958011 -0.26044407 -0.12964177 -0.33093137
-0.34475264 0.15419936 0.25793692 0.36798108 0.31393003 -0.23515525 0.36884886 -0.051028617
-0.1170107 0.30444133 0.24527061 -0.024145378 0.0052258493 0.059446897 0.028081778 -0.14161694
0.11613395 0.18750422 -0.104077265 -0.3462567 0.1369453 -0.29958275 0.13775428 -0.24396926
-0.29989734 -0.10908748 0.17401001 0.077070266 0.062336676 0.2806058 -0.30182692 -0.21992294
-0.3445677 0.28134054 -0.10408297 -0.2416626 0.05341801 0.07302517 0.28537422 -0.33499074
-0.2737567 0.36638013 -0.29464322 -0.08491426 -0.31976846 -0.24975882 0.34830937 -2.500875e-06
-0.1266478 0.1818872 -0.18740334 0.24923933 -0.39275765 -0.02205655 0.22900218 -0.23118275
0.40340197 -0.16404723 0.31812933 -0.06677591 0.15637688 -0.0611416 0.03508202 0.20377424
0.14925629 0.28371117 0.008674578 0.2260848 -0.24629687 -0.12388459 -0.042479664 -0.14783883
0.06167364 0.07661426 -0.270578 -0.067968994 -0.19117032 -0.15427324 -0.31536007 0.31732506
0.18665877 0.26635152 0.20730175 0.17514618 0.048655957 0.09044238 0.32214472 0.34213722
0.035018157 0.109992586 0.34062782 0.21214513 -0.07844582 -0.17990921 -0.32242343 -0.27023304
-0.36195666 0.2694317 0.33488587 -0.3027716 0.19523683 0.33584785 -0.299966 0.41718748
0.08633178 0.37113062 0.24771087 -0.2576794 -0.2754108 -0.034106363 -0.26544046 -0.1519406
0.27425924 0.344154 -0.3540592 -0.06728118 -0.21654505 0.28806984 0.03199455 -0.2556684
-0.12921655 -0.1519433 0.30298066 -0.044350326 0.11263844 -0.27276298 -0.052300606 -0.17673983
0.19487093 -0.32875577 0.07085687 -0.068899125 0.14784566 0.22023578 -0.12592068 -0.20795444
-0.04004268 0.16455622 -0.403523 -0.3423149 0.020691158 -0.097724326 0.0021870849 0.3118657
-0.15034544 0.21726054 -0.058452696 0.11228794 -0.28293785 -0.039108694 0.29366934 0.39121187
-0.23982547 -0.19090109 -0.073164046 -0.14647305 -0.2654931 0.40090662 -0.19935714 0.3206179
0.33088645 -0.17552991 -0.34803328 -0.36077577 0.28906524 -0.24395755 -0.22126068 -0.37011397
0.34445906 0.020879656 0.40142566 -0.26726848 -0.015738927 0.35840133 -0.35067508 -0.263678
-0.2536757 -0.11299288 -0.10433817 -0.3492779 -0.36080173 -0.3667796 -0.20359305 -0.31743392
0.04177861 0.2069784 -0.11623765 0.2868462 0.13957533 -0.39320654 0.3892945 0.10684426
0.23350556 0.10273463 -0.16256025 0.042636458 0.40284276 -0.35367656 0.11810078 0.14480434
0.28290868 0.31583902 0.123380184 0.06805847 -0.19568297 -0.08150118 -0.36275464 0.09964251
0.11081688 -0.15406638 -0.069552734 0.0888842 0.20157301 0.08584833 -0.27680674 -0.076132685
-0.33195916 0.2251193 0.35213673 0.2145255 0.20775941 0.19228129 -0.19452621 0.22850014
0.28429344 0.085365206 0.19812642 -0.23572959 -0.19087598 -0.031386632 -0.027303152 0.37982535
0.33512282 -0.17548741 -0.28190044 0.123619355 0.15019841 0.25320348 0.2287178 -0.029060666
00000000: a9f5 803e 9b88 acbe b1d7 fcbd ad9e a13d
00000010: c000 7ebe 8e63 693e 7ce6 c8be 14da 073e
00000020: 712e eebd 600f 8c3e 1cfe 68bd 5c94 663e
00000030: 0480 8e3d ed58 85be d0c0 04be d66f a9be
00000040: 6b83 b0be 70e6 1d3e 4f10 843e 0468 bc3e
00000050: 70bb a03e 8acc 70be c2d9 bc3e 6203 51bd
00000060: 4ea3 efbd bcdf 9b3e 3828 7b3e 87cc c5bc
00000070: 9a3d ab3b 977e 733d c20b e63c 0804 11be
00000080: a3d7 ed3d 1b01 403e 7626 d5bd 8f48 b1be
00000090: 643b 0c3e e962 99be 750f 0d3e 14d3 79be
000000a0: 258c 99be 4269 dfbd ae2f 323e 04d7 9d3d
000000b0: be54 7f3d 90ab 8f3e 0f89 9abe 7b33 61be
000000c0: 2d6b b0be de0b 903e 7429 d5bd 6776 77be
000000d0: d8cc 5a3d 388e 953d 921c 923e e883 abbe
000000e0: d729 8cbe 2d96 bb3e 7adb 96be 87e7 adbd
000000f0: b1b8 a3be c7c0 7fbe 9b55 b23e b5d4 27b6
00000100: f6af 01be a340 3a3e a9e6 3fbe 9838 7f3e
00000110: 8817 c9be f0af b4bc 8c7f 6a3e 2cbb 6cbe
00000120: b48a ce3e fffb 27be d9e1 a23e cfc1 88bd
00000130: 4321 203e 9d6f 7abd 2ab2 0f3d 32aa 503e
00000140: a4d6 183e 9742 913e d11f 0e3c c682 673e
00000150: 3f35 7cbe 34b7 fdbd 28ff 2dbd 1063 17be
00000160: 809d 7c3d f0e7 9c3d 3389 8abe 5433 8bbd
00000170: 27c2 43be cef9 1dbe e076 a1be 6e78 a23e
00000180: 7a23 3f3e 3a5f 883e e946 543e 8559 333e
00000190: 784b 473d db39 b93d 27f0 a43e 9c2c af3e
000001a0: 336f 0f3d cb43 e13d c566 ae3e 933c 593e
000001b0: 34a8 a0bd 1f3a 38be af14 a5be fc5b 8abe
000001c0: 6252 b9be f4f2 893e 2976 ab3e e104 9bbe
000001d0: 2aec 473e 40f4 ab3e 2595 99be 9999 d53e
000001e0: b7ce b03d d504 be3e eba7 7d3e 8eee 83be
000001f0: a502 8dbe 1db3 0bbd d0e7 87be 5196 1bbe
00000200: b56b 8c3e f434 b03e 3f47 b5be b7ca 89bd
00000210: fcbd 5dbe e47d 933e b80c 033d f8e6 82be
00000220: 5851 04be 0697 1bbe 4820 9b3e b0a8 35bd
00000230: fcae e63d 97a7 8bbe 2939 56bd 49fb 34be
00000240: 3f8c 473e ad52 a8be 681d 913d fc1a 8dbd
00000250: da64 173e 7d85 613e 5af1 00be 02f2 54be
00000260: cb03 24bd 6d81 283e 919a cebe e643 afbe
00000270: 8180 a93c b123 c8bd 3255 0f3b dcac 9f3e
00000280: 28f4 19be 8c79 5e3e 186c 6fbd 38f7 e53d
00000290: 3bdd 90be 7030 20bd d45b 963e ec4c c83e
000002a0: cf94 75be 937b 43be 08d7 95bd 08fd 15be
000002b0: b6ee 87be a243 cd3e 4724 4cbe 0828 a43e
000002c0: f369 a93e 1dbe 33be 6b31 b2be 9ab7 b8be
000002d0: 5c00 943e 02d0 79be 2992 62be 947f bdbe
000002e0: f05c b03e d00b ab3c aa87 cd3e 6ad7 88be
000002f0: ecee 80bc 6180 b73e af8b b3be ce00 87be
00000300: c8e1 81be d068 e7bd 40af d5bd 8ed4 b2be
00000310: 01bb b8be 89ca bbbe b27a 50be b386 a2be
00000320: 0c20 2b3d 25f2 533e 010e eebd 81dd 923e
00000330: d6ec 0e3e 5e52 c9be 9c51 c73e 2ad1 da3d
00000340: 151c 6f3e 8966 d23d 3276 26be 91a3 2e3d
00000350: 6841 ce3e 1815 b5be d2de f13d 9747 143e
00000360: 68d9 903e a7b5 a13e c0ae fc3d 3d62 8b3d
00000370: 1e61 48be 17ea a6bd faba b9be 5f11 cc3d
00000380: f6f3 e23d 94c3 1dbe aa71 8ebd eb08 b63d
00000390: 2869 4e3e 40d1 af3d 9db9 8dbe 74eb 9bbd
000003a0: 8df6 a9be ac85 663e 444b b43e 93ac 5b3e
000003b0: e2be 543e 63e5 443e e131 47be f1fb 693e
000003c0: e98e 913e f4d3 ae3d a7e1 4a3e 1963 71be
000003d0: fe74 43be 458f 00bd dcaa dfbc 7878 c23e
000003e0: 3895 ab3e f9b2 33be 4155 90be 252c fd3d
000003f0: 9dcd 193e e3a3 813e 0035 6a3e a210 eebc

network.0.bias f4 [64]
-0.1284369 -0.29833776 -0.13187519 -0.42316374 -0.18953532 0.15436359 0.13953447 0.33322403
0.21672255 0.3053294 -0.19805725 0.10899681 -0.08388738 0.33211946 -0.12445745 -0.101949066
-0.01874933 -0.26178643 -0.09432724 -0.16388917 0.34612572 0.0913946 -0.071181744 0.16050737
0.38772172 -0.0918004 -0.21760295 0.12764293 -0.0825744 0.3617153 0.39017957 -0.28372338
0.16822457 0.060648505 0.10936686 0.122463256 0.11606341 -0.2731047 0.11810398 0.17892618
0.10712078 0.14369433 0.19452652 0.38074148 0.23283672 -0.16740774 0.049663454 0.37176618
0.046528548 0.032973975 -0.35270396 0.06838075 0.360471 0.2742533 0.034254223 0.057390608
0.3676015 0.16704848 0.18522406 -0.054233503 -0.27352485 -0.003735032 0.2202093 0.3787111
00000000: f684 03be babf 98be 4a0a 07be eba8 d8be
00000010: 8c15 42be 7d11 1e3e 20e2 0e3e 579c aa3e
00000020: 84ec 5d3e 2354 9c3e 85cf 4abe b839 df3d
00000030: 26cd abbd 900b aa3e 8ce3 febd acca d0bd
00000040: 3298 99bc df08 86be a42e c1bd 90d2 27be
00000050: 6437 b13e 182d bb3d bcc7 91bd 0b5c 243e
00000060: 7683 c63e d901 bcbd 4fd3 5ebe d4b4 023e
00000070: c41c a9bd bf32 b93e 9ec5 c73e 3144 91be
00000080: 1043 2c3e 916a 783d bbfb df3d 04ce fa3d
00000090: a7b2 ed3d 61d4 8bbe 80e0 f13d 6d38 373e
000000a0: 2462 db3d 9b24 133e f631 473e 8cf0 c23e
000000b0: c06c 6e3e ef6c 2bbe e86b 4b3d 2358 be3e
000000c0: b894 3e3d b80f 073d 9d95 b4be 350b 8c3d
000000d0: a88f b83e ee6a 8c3e 284e 0c3d 6a12 6b3d
000000e0: 4436 bc3e c20e 2b3e 60ab 3d3e f323 5ebd
000000f0: 730b 8cbe 70c7 74bb 8c7e 613e 6ce6 c13e

network.2.weight f4 [64, 64]
0.12828328 0.09373298 -0.012977183 0.12346796 -0.011440776 0.12846585 -0.041579865 -0.09451715
-0.05727306 0.01739795 -0.008920157 -0.12359966 -0.091842346 -0.005996038 -0.040326133 -0.004314497
0.048943296 -0.03509539 0.044186413 0.08702162 -0.109253295 0.1259883 -0.038597584 -0.03357306
0.065075725 -0.101204716 -0.05222377 0.07563837 -0.0017198473 -0.085812934 0.011487991 0.10548568
-0.088685736 -0.0073973117 -0.06942521 0.108976856 0.060999926 -0.094867185 -0.120988786 -0.08553978
-0.029754238 0.1054163 0.06480356 0.012196162 -0.10268746 0.052057046 0.073675096 -0.053225193
-0.0952566 -0.06068264 0.09301361 0.0048628757 -0.023881236 0.065595485 -0.09944168 0.07993448
0.11349701 0.03379456 0.060343623 -0.09405972 0.05204221 -0.05975124 -0.046831176 -0.040481538
0.04009059 -0.023610786 -0.10359295 0.05036037 0.002034493 0.03670718 -0.069318086 0.03832649
0.054202735 -0.11353141 -0.05779278 -0.0013723671 0.02376893 0.037617955 0.07753976 0.1161329
-0.075227425 0.060292393 0.12036589 -0.037445705 -0.073136434 0.00029247196 -0.007079199 0.06229045
0.0057461355 -0.035977557 0.07342826 0.05728054 -0.100818455 -0.073277 0.012691364 0.009837092
0.006412059 -0.028351054 0.049677763 0.078062996 0.11436498 -0.07999015 0.12120472 -0.009268991
0.07397266 -0.02573918 -0.0061446195 0.111675635 -0.06713411 -0.12858212 -0.10870035 0.012051641
-0.099408194 0.061226755 0.091125846 0.009924185 -0.07632549 0.067347586 -0.092487216 0.029701024
-0.055362638 -0.11992638 -0.047781616 -0.04581016 0.05732563 0.08735961 0.110439494 0.105017856
0.08151086 -0.14031899 0.060146242 -0.037399057 0.03290488 -0.04852247 -0.09447549 -0.086066276
0.06171541 -0.04380869 0.009229784 -0.066309005 -0.09260163 -0.025781617 -0.10785264 -0.024313167
-0.0039774054 0.02527479 -0.058430865 -0.11125309 0.09012469 0.089934185 0.05299054 -0.010765221
0.12407426 -0.04388684 -0.034176998 0.07488793 -0.09501207 -0.097668104 0.123302355 0.07840704
-0.10379563 0.048806936 -0.03580626 0.11131257 0.12007584 -0.057864815 -0.025867924 0.094013564
0.010038855 -0.02301352 0.10769329 0.06644701 0.10065301 0.037918314 -0.023410767 -0.0065725516
-0.023514772 0.037318647 -0.036164377 -0.042052973 0.010337519 0.0728004 0.10063863 0.109674335
0.036271468 0.06416355 0.027436629 0.092840485 -0.111286946 -0.0053452053 -0.072492704 -0.016219735
0.10930144 0.028347434 -0.0105627775 -0.07069545 -0.11006519 0.04967687 -0.07103695 -0.11654588
-0.069308445 -0.11194466 -0.107551955 0.03342472 -0.07495523 0.092053525 -0.016287014 -0.009112179
-0.08030469 -0.085774414 -0.02211678 -0.03734444 0.03603813 0.07526306 0.05952224 0.08554925
-0.006542212 -0.04199829 0.114636354 -0.10576357 0.04224181 -0.08700011 0.07344848 0.044296008
0.08740461 0.11443637 0.042668283 0.07224052 0.07727638 -0.090139285 0.0786697 -0.06520256
0.112118796 -0.04931272 0.09244398 0.026538713 0.0979128 -0.04286237 -0.03697543 -0.008888373
0.07406467 0.11116926 -0.09446535 -0.009241509 -0.056152552 -0.03144767 0.06710772 -0.0077570057
0.048371103 -0.07084193 -0.094589606 -0.061642278 0.06517927 0.09392393 -0.094574764 0.080907956
00000000: b15c 033e 14f7 bf3d 409e 54bc c5dc fc3d
00000010: 1872 3bbc 8d8c 033e a64f 2abd 3592 c1bd
00000020: 2897 6abd 2586 8e3c da25 12bc d221 fdbd
00000030: d717 bcbd 6a7a c4bb 042d 25bd a060 8dbb
00000040: c478 483d 2fc0 0fbd d0fc 343d 6438 b23d
00000050: 31c0 dfbd 1403 013e 8018 1ebd e883 09bd
00000060: 6c46 853d 6b44 cfbd 98e8 55bd 4ae8 9a3d
00000070: 806c e1ba b1be afbd 2038 3c3c e008 d83d
00000080: dea0 b5bd 2665 f2bb ce2e 8ebd 422f df3d
00000090: 0fdb 793d ba49 c2bd f8c8 f7bd 7b2f afbd
000000a0: 29bf f3bc 80e4 d73d bbb7 843d 69d2 473c
000000b0: ce4d d2bd c539 553d f8e2 963d a902 5abd
000000c0: e415 c3bd 5c8e 78bd eb7d be3d c258 9f3b
000000d0: 95a2 c3bc ed56 863d 14a8 cbbd b0b4 a33d
000000e0: 1f71 e83d 2a6c 0a3d e02a 773d 62a2 c0bd
000000f0: 362a 553d b7bd 74bd 0cd2 3fbd f8cf 25bd
00000100: 0836 243d 686b c1bc 8a28 d4bd ad46 4e3d
00000110: 2155 053b 455a 163d a4f6 8dbd 3dfc 1c3d
00000120: b003 5e3d 2883 e8bd 1fb8 6cbd 00e1 b3ba
00000130: 0fb7 c23c 4915 1a3d 2acd 9e3d 16d7 ed3d
00000140: d610 9abd 28f5 763d 6482 f63d ab60 19bd
00000150: 8ec8 95bd ec56 9939 a0f8 e7bb 4524 7f3d
00000160: 144a bc3b 345d 13bd 8e61 963d 009f 6a3d
00000170: e879 cebd 4012 96bd 70ef 4f3c c12b 213c
00000180: 401c d23b 7840 e8bc e97a 4b3d 7edf 9f3d
00000190: 3038 ea3d e0d1 a3bd 2e3a f83d f7dc 17bc
000001a0: fa7e 973d f9da d2bc ce58 c9bb 32b6 e43d
000001b0: 9c7d 89bd 08ab 03be 4a9e debd 3f74 453c
000001c0: 8696 cbbd e8c8 7a3d 30a0 ba3d 0d99 223c
000001d0: 8a50 9cbd 88ed 893d f069 bdbd 904f f33c
000001e0: efc3 62bd f69b f5bd a8b6 43bd 6fa3 3bbd
000001f0: 48ce 6a3d 98e9 b23d 1a2e e23d 9a13 d73d
00000200: 2aef a63d c8af 0fbe e85b 763d c12f 19bd
00000210: 44c7 063d 7fbf 46bd 5e7c c1bd 8443 b0bd
00000220: 4cc9 7c3d be70 33bd 8538 173c 04cd 87bd
00000230: eca5 bdbd f833 d3bc d8e1 dcbd 682c c7bc
00000240: e554 82bb 140d cf3c 3455 6fbd a9d8 e3bd
00000250: 4b93 b83d 6a2f b83d 9c0c 593d 9c60 30bc
00000260: a51a fe3d b0c2 33bd 2efd 0bbd d85e 993d
00000270: b095 c2bd 3706 c8bd f285 fc3d df93 a03d
00000280: ce92 d4bd c8e9 473d 96a9 12bd d8f7 e33d
00000290: 52ea f53d a803 6dbd f8e8 d3bc 2f8a c03d
000002a0: 027a 243c d986 bcbc 4d8e dc3d 5f15 883d
000002b0: 2a23 ce3d 3c50 1b3d f0c7 bfbc 8f5e d7bb
000002c0: 0da2 c0bc 70db 183d 1921 14bd bd3f 2cbd
000002d0: b35e 293c 6018 953d a01b ce3d f09c e03d
000002e0: 6491 143d 2e68 833d c8c2 e03c 2723 be3d
000002f0: 69ea e3bd d526 afbb 0e77 94bd 40df 84bc
00000300: 6fd9 df3d e138 e83c 800f 2dbc c7c8 90bd
00000310: dc69 e1bd f979 4b3d d27b 91bd 9baf eebd
00000320: 96f1 8dbd 3e43 e5bd 3344 dcbd 5ce8 083d
00000330: 2182 99bd 8f86 bc3d 586c 85bc 404b 15bc
00000340: c976 a4bd 7faa afbd 402e b5bc 7cf6 18bd
00000350: b89c 133d 8523 9a3d 98cd 733d 7234 af3d
00000360: 0d60 d6bb 6606 2cbd 77c6 ea3d 929a d8bd
00000370: c005 2d3d 1d2d b2bd 286c 963d bb6f 353d
00000380: 3001 b33d 9e5d ea3d f0c4 2e3d d6f2 933d
00000390: 1443 9e3d f29a b8bd 941d a13d eb88 85bd
000003a0: 8a9e e53d 22fc 49bd 4553 bd3d b767 d93c
000003b0: 8286 c83d 7490 2fbd 8c73 17bd 8aa0 11bc
000003c0: 38af 973d b6ac e33d 0d77 c1bd b369 17bc
000003d0: 3800 66bd 46cf 00bd c66f 893d 7b2e febb
000003e0: c720 463d 9315 91bd 32b8 c1bd 9d7c 7cbd
000003f0: b67c 853d 305b c03d 6ab0 c1bd 12b3 a53d

network.2.bias f4 [64]
0.045002162 -0.06932061 -0.0749111 -0.067952335 0.08779837 -0.0021957215 -0.017960634 0.06747225
0.0069293976 0.031985827 0.026877135 0.071887255 -0.07658297 -0.097098194 -0.062382188 0.086794786
-0.069511905 0.00604406 -0.052290354 0.07031085 -0.10651018 0.109681174 0.09860787 0.049802363
-0.07953423 0.0824847 -0.054441657 -0.09488413 0.03276895 -0.09049598 -0.081383705 -0.034675945
-0.066386744 -0.021845656 -0.09147132 0.0028372854 -0.06410314 0.09025073 0.103997976 -0.012915959
-0.019602656 0.049019597 0.0020869782 0.10652944 0.10634307 0.0076031103 -0.06972281 0.0042637456
0.09685033 -0.034757227 0.015157617 0.026220666 -0.12275319 0.093946084 0.020942006 0.07077515
-0.07159266 -0.11072332 0.11205355 -0.08857182 -0.06326684 0.03199216 -0.013657153 0.017890448
00000000: 3054 383d f7f7 8dbd fe6a 99bd 982a 8bbd
00000010: a2cf b33d 18e6 0fbb 2e22 93bc e42e 8a3d
00000020: 0010 e33b 9203 033d 702d dc3c a039 933d
00000030: 88d7 9cbd 6bdb c6bd 7784 7fbd 77c1 b13d
00000040: 425c 8ebd 400d c63b 692e 56bd 23ff 8f3d
00000050: 0222 dabd 86a0 e03d ecf2 c93d 90fd 4b3d
00000060: d8e2 a2bd bded a83d 37fe 5ebd 9c52 c2bd
00000070: bc38 063d f555 b9bd 80ac a6bd 5d08 0ebd
00000080: c6f5 87bd a9f5 b2bc 5155 bbbd c0f1 393b
00000090: 8248 83bd 60d5 b83d e4fc d43d 759d 53bc
000000a0: c095 a0bc c6c8 483d afc5 083b 1b2c da3d
000000b0: 65ca d93d 8323 f93b d5ca 8ebd e4b6 8b3b
000000c0: 7759 c63d 985d 0ebd a757 783c b9cc d63c
000000d0: 0666 fbbd ce66 c03d 928e ab3c 90f2 903d
000000e0: 2c9f 92bd e8c2 e2bd 557c e53d 2465 b5bd
000000f0: 0c92 81bd 360a 033d 40c2 5fbc fd8e 923c

network.4.weight f4 [6, 64]
-0.03377524 -0.10335159 0.12087287 0.008286274 -0.101986125 -0.09461047 -0.13085069 0.11704974
-0.09858468 -0.03283911 0.092314735 0.02464433 -0.11066838 -0.08238289 0.026364246 0.06915419
0.114858665 0.049465567 0.12151966 -0.090720154 0.029235154 -0.023852507 0.013442129 0.10294336
-0.012899589 -0.12511334 0.03432907 0.0024383194 -0.08983025 0.0111744385 0.123365015 0.06785404
0.11476639 -0.033238534 0.11115307 0.016735017 -0.03695465 -0.060985863 0.011773512 0.060655944
-0.018132016 -0.09830548 0.11332393 0.052357934 -0.08541665 0.00583064 -0.04053351 0.021284714
-0.071177416 -0.018077016 -0.01437275 0.106288664 -0.060105346 -0.11391449 -0.036642656 0.042995125
-0.0040165912 -0.08919339 0.05810271 0.08620101 0.09150847 -0.025451886 -0.10560444 -0.05803007
-0.11489206 0.11452682 0.04448264 0.008819341 0.09855066 0.112868465 0.048189446 0.07127859
0.049111694 0.09523485 -0.041240364 -0.08213517 -0.089292504 0.0433086 -0.12553959 -0.017319944
0.01303528 -0.07371931 0.114360556 0.0052960985 0.077559695 0.02773322 -0.082089275 0.043177202
-0.1056526 0.0126937395 -0.08250412 -0.05387118 0.0043281317 -0.028137337 -0.052780747 0.012058083
-0.03298159 -0.043464802 -0.12376867 0.025660366 0.025267025 -0.085936636 -0.122362316 0.019998433
0.05127634 0.043939147 -0.06279647 -0.00093795225 -0.03986038 0.008477047 0.023979858 -0.04236217
0.03204318 0.08651316 -0.038701285 0.108678706 -0.041396543 0.050738305 0.0865434 -0.07814272
-0.055924974 -0.061000377 0.04651196 0.11603354 -0.106347494 -0.11633231 0.055637155 -0.015758863
0.11348618 0.010838737 -0.044849418 -0.064073995 -0.11719291 0.0674266 0.035418082 0.04361079
-0.05573313 0.035715826 0.06954853 -0.064156175 -0.043803256 -0.0043515684 -0.07206402 -0.0048545436
-0.08641426 -0.049366698 -0.031035112 0.044710957 0.054236427 -0.04091668 -0.09352057 0.03909844
0.024572212 0.08816231 -0.070223376 -0.09082784 -0.0932419 -0.1305772 -0.062072203 -0.012266022
0.032736383 -0.017764408 0.09189907 0.063721985 0.067076966 0.031831875 0.077562705 0.04774319
0.10619332 -0.07077595 -0.1020554 0.057020746 0.09952379 -0.078483045 0.06614171 0.026227405
0.007650288 -0.053384885 -0.04403668 0.084725365 -0.08577376 -0.026127085 -0.0657703 0.06671254
-0.06863593 -0.10482249 -0.022080835 -0.123327255 -0.04806772 -0.033419028 -0.11594748 -0.12539488
0.029390056 -0.018470086 -0.10448528 -0.09888056 0.08703396 -0.116182104 0.02827658 -0.002997597
0.061747298 0.08253556 0.07635945 0.04337181 0.089864895 -0.110603794 0.08239931 -0.053363014
0.028174946 -0.03578353 -0.12554207 -0.051528405 0.06887302 -0.074501924 -0.0892275 -0.017335653
0.08624863 0.046643287 0.052351475 -0.0008800142 0.0057800114 0.066835865 0.11726272 -0.09880254
0.08054163 -0.01292984 -0.025722302 0.00996685 0.08156716 0.10511021 -0.09276843 -0.112606496
-0.008341625 -0.07892211 0.0027446947 0.10750634 0.11014219 -0.055490118 -0.09134167 0.05331734
-0.02074091 -0.11706194 0.051072013 0.09211469 -0.02831886 -0.07744692 -0.08065902 0.10923758
-0.10589873 -0.08839321 0.09572458 -0.047692046 -0.115995064 0.08169593 0.09486966 0.10022119
00000000: e857 0abd 00aa d3bd 328c f73d 27c3 073c
00000010: 1ade d0bd 22c3 c1bd b9fd 05be c6b7 ef3d
00000020: c4e6 c9bd 4d82 06bd 820f bd3d e8e2 c93c
00000030: 1ba6 e2bd 5cb8 a8bd d5f9 d73c b6a0 8d3d
00000040: 053b eb3d 689c 4a3d 4ddf f83d 7dcb b9bd
00000050: 907e ef3c 5566 c3bc 603c 5c3c f8d3 d23d
00000060: cc58 53bc b61d 00be a49c 0c3d 36cc 1f3b
00000070: ecf8 b7bd fe14 373c cca6 fc3d 0ff7 8a3d
00000080: a40a eb3d 2125 08bd 39a4 e33d e017 893c
00000090: c25d 17bd 50cc 79bd b0e5 403c 5e72 783d
000000a0: 9889 94bc 6254 c9bd 6016 e83d 4675 563d
000000b0: edee aebd f40e bf3b 7706 26bd 485d ae3c
000000c0: 77c5 91bd 4016 94bc af7b 6bbc dfad d93d
000000d0: 0631 76bd 004c e9bd 9c16 16bd a81b 303d
000000e0: 9c9d 83bb 06ab b6bd 1bfd 6d3d 288a b03d
000000f0: cb68 bb3d 7980 d0bc 2447 d8bd f0b0 6dbd
00000100: 874c ebbd 0a8d ea3d 6e33 363d ff7e 103c
00000110: eed4 c93d 9527 e73d 4c62 453d 82fa 913d
00000120: 5829 493d 7d0a c33d a8eb 28bd 7c36 a8bd
00000130: fdde b6bd 5c64 313d 738d 00be 8ee2 8dbc
00000140: ed91 553c 26fa 96bd de35 ea3d e58a ad3b
00000150: 9ed7 9e3d c730 e33c 6c1e a8bd 94da 303d
00000160: 6460 d8bd 67f9 4f3c ecf7 a8bd 07a8 5cbd
00000170: 00d3 8d3b 4680 e6bc a030 58bd 448f 453c
00000180: b417 07bd 2608 32bd 6e7a fdbd b035 d23c
00000190: cbfc ce3c 8cff afbd 1899 fabd c1d3 a33c
000001a0: 2407 523d 89f9 333d 709b 80bd e9e0 75ba
000001b0: a344 23bd 50e3 0a3c 6871 c43c f483 2dbd
000001c0: b63f 033d d02d b13d 3d85 1ebd f192 de3d
000001d0: 6c8f 29bd f8d2 4f3d ab3d b13d 4a09 a0bd
000001e0: 9611 65bd 88db 79bd 5383 3e3d fea2 ed3d
000001f0: b7cc d9bd a23f eebd c9e3 633d bb18 81bc
00000200: 716b e83d f594 313c 06b4 37bd 3a39 83bd
00000210: d602 f0bd f516 8a3d 8d12 113d 3aa1 323d
00000220: 6c48 64bd c24a 123d 766f 8e3d 5064 83bd
00000230: 0b6b 33bd 9a97 8ebb 4d96 93bd dd12 9fbb
00000240: f6f9 b0bd bc34 4abd 593d febc d622 373d
00000250: 0427 5e3d 4098 27bd b687 bfbd b025 203d
00000260: aa4b c93c 718e b43d 46d1 8fbd f203 babd
00000270: 9cf5 bebd 08b6 05be 6c3f 7ebd 6df7 48bc
00000280: 9616 063d aa86 91bc 9435 bc3d ac80 823d
00000290: a65f 893d 2462 023d 32d9 9e3d 5d8e 433d
000002a0: e27b d93d fbf2 90bd 6c02 d1bd 968e 693d
000002b0: 21d3 cb3d b8bb a0bd 4e75 873d dbda d63c
000002c0: 44af fa3b 1caa 5abd ce5f 34bd 7e84 ad3d
000002d0: 27aa afbd 7808 d6bc 94b2 86bd 96a0 883d
000002e0: ff90 8cbd 2cad d6bd dee2 b4bc 0093 fcbd
000002f0: a8e2 44bd 64e2 08bd df75 edbd 8467 00be
00000300: 6ac3 f03c 944e 97bc 61fc d5bd e481 cabd
00000310: dc3e b23d e2f0 edbd 49a4 e73c 5573 44bb
00000320: bcea 7c3d 6708 a93d 5862 9c3d a4a6 313d
00000330: 160b b83d 3e84 e2bd f8c0 a83d 2d93 5abd
00000340: 25cf e63c c091 12bd 1a8e 00be 730f 53bd
00000350: 4c0d 8d3d 7794 98bd e8bc b6bd 8003 8ebc
00000360: 1fa3 b03d 080d 3f3d 806e 563d c1b0 66ba
00000370: 4066 bd3b 3ee1 883d 7027 f03d fc58 cabd
00000380: 03f3 a43d aed7 53bc 94b7 d2bc 004c 233c
00000390: af0c a73d 0644 d73d 60fd bdbd 3c9e e6bd
000003a0: 50ab 08bc eaa1 a1bd 56e0 333b 492c dc3d
000003b0: 3a92 e13d 9b49 63bd 5711 bbbd 4863 5a3d
000003c0: d7e8 a9bc 2cbe efbd e330 513d a0a6 bc3d
000003d0: f4fc e7bc 7e9c 9ebd 8e30 a5bd f4b7 df3d
000003e0: 6fe1 d8bd 8007 b5bd 400b c43d bc58 43bd
000003f0: d28e edbd 3250 a73d 064b c23d c440 cd3d

network.4.bias f4 [6]
-0.07432966 0.07202992 -0.123778 0.07076671 -0.07804969 -0.0012480229
00000000: 263a 98bd 6c84 933d 527f fdbd 23ee 903d
00000010: 84d8 9fbd b394 a3ba
